data.pth (torch, 8191 bytes, 6 tensors)

l1.weight f4 [8, 111]
000000 39 c3 88 bd 18 ca ce 3b 50 d4 8c be bb f8 2a bf
       -0.06677861 0.0063107125 -0.27505732 -0.6678578
000010 be 22 32 3f c6 cc 00 bf b4 8c 83 3c 37 35 80 3e
       0.6958426 -0.5031246 0.016058303 0.250406
000020 33 30 db be d8 ac ba bd b5 cf ae be 93 30 d2 3e
       -0.4281021 -0.091149986 -0.34142843 0.41052684
000030 96 72 83 be e4 68 9e be 50 dc ba 3e b6 ee 67 bd
       -0.2567336 -0.309394 0.3649621 -0.056624137
000040 ec b3 a4 be bc 04 3d bf e1 6f 56 be f6 48 8f 3e
       -0.3216852 -0.7383535 -0.20941116 0.27985352
000050 09 66 98 3f 59 81 6a 3e c2 50 bb bd 22 a7 94 bd
       1.1906139 0.22900905 -0.09146263 -0.072584406
000060 75 f1 09 be cb 5b 8b be 3d 2a 0c be 43 28 e8 be
       -0.13471015 -0.2721847 -0.13687988 -0.45343217
000070 7c 24 f2 3e 80 42 db be 6f 6e 4e 3f 6d 27 a5 3f
       0.4729346 -0.42824173 0.8063726 1.2902657
000080 78 30 28 3f 43 81 65 be 80 dd d2 be ea 28 4d 3f
       0.6569896 -0.2241259 -0.41184616 0.80140555
000090 0d fd eb bd 9c da b9 3e dd ac 1e 3e 8b d3 cb 3d
       -0.11522875 0.36299598 0.1549563 0.09952458
0000a0 c8 b0 97 3e 10 fe ab 3c b9 c9 6e be df fe 3c bf
       0.2962706 0.02099517 -0.23319139 -0.738264
0000b0 e0 6c 11 3f 9a ae db 3e 81 11 15 bf 42 8e fd 3c
       0.56806755 0.42906648 -0.58229834 0.030951623
0000c0 f3 79 e0 be 18 06 f8 be 3f e2 9c be a7 ee 3c 3f
       -0.4384304 -0.4844215 -0.30641362 0.73801655
0000d0 78 7d aa bd ca 88 a3 3e ec 69 1e bd da cc a9 3e
       -0.083247125 0.319403 -0.038675234 0.33164102
0000e0 a0 18 87 be 64 7e 32 be 5e c2 a6 be 8c 13 23 3e
       -0.26385975 -0.17431027 -0.32570165 0.15925425
0000f0 0e 83 8c 3e f3 b4 1a 3f ea bc 7a 3c ff 8d d3 be
       0.27443737 0.60432357 0.01530383 -0.41319272
000100 cc 6a 8f be 79 99 37 bf 8e 4b e6 3c 7f 26 0f be
       -0.28011167 -0.71718556 0.0281122 -0.13979529
000110 21 a2 b3 bd 1f f2 86 3e ca e0 76 3e 63 8c 0b 3f
       -0.08771158 0.263566 0.24109188 0.5451109
000120 f5 10 97 3e e6 67 ba bc 9d 37 13 be 8d 1c 03 3f
       0.29505125 -0.02275462 -0.14376684 0.5121544
000130 ef 23 d0 be 5d 86 1b be f6 6e 3f be 06 5e d0 be
       -0.40652415 -0.15187974 -0.18694672 -0.40696734
000140 4f 8d fc be 88 67 eb 3d 10 22 30 be 57 6f ef be
       -0.4932656 0.114943564 -0.17200494 -0.46764633
000150 5c 46 90 bd 16 6c 77 be 17 28 3a be ce 7a bc bd
       -0.0704467 -0.24162325 -0.18179356 -0.09203111
000160 f4 80 34 3f 58 53 c8 3e f6 94 35 be 36 4c a6 3f
       0.70509267 0.39126086 -0.17732605 1.2992008
000170 d0 8d c5 bd 2c ee 04 bf 73 49 be be eb ad 15 3f
       -0.09646189 -0.5192592 -0.37165412 0.584685
000180 a0 12 fa be 72 7b 76 be 9b 6c 40 3e 12 7e 55 3e
       -0.48842335 -0.24070528 0.1879143 0.20848873
000190 ab 6a 91 3d 5d 8c 57 3e 3b 70 89 3e 53 e4 70 3c
       0.071004234 0.21049638 0.26843438 0.014702874
0001a0 5c e6 5c 3f 27 0f 2f 3f 03 03 e1 bc 83 4d a0 3e
       0.86289 0.68382496 -0.027467256 0.31309137
0001b0 0a 4e ec be 80 4c 3f 3d 18 c6 67 be 50 97 a2 be
       -0.4615329 0.046703815 -0.2263416 -0.31756067
0001c0 80 1d a8 3b 3b fd 73 be e0 f4 33 3e 1c b6 10 3f
       0.00513047 -0.23827069 0.17573881 0.56527877
0001d0 de b2 aa bd aa 94 86 3e ed 67 3a 3e b8 41 e2 be
       -0.083348975 0.26285297 0.18203707 -0.44190764
0001e0 c8 b6 b9 3e 95 f9 85 bb ed c4 74 3e b5 25 02 3c
       0.36272264 -0.0040885904 0.23903246 0.00794356
0001f0 23 24 93 3e 54 6e ed 3d 62 60 20 3f c1 bf 13 3e
       0.28738508 0.11593309 0.6264707 0.14428617
000200 02 00 4e bf b1 c8 6f 3d 8b 9c 68 3e ee 56 e1 3e
       -0.8046876 0.058541004 0.22715966 0.44011635
000210 7c a5 57 3e 6d 68 47 3e f6 91 07 3e f0 fc 80 be
       0.21059221 0.19473429 0.13239273 -0.25192976
000220 ec df 56 be b1 25 9c be 2f 49 32 bf 95 c7 d9 3e
       -0.20983857 -0.30497506 -0.6964292 0.42535082
000230 1f 44 05 3f 20 36 4b 3f e0 1b ad 3e 05 84 c5 3e
       0.5205707 0.79379463 0.3381033 0.38577285
000240 7c 9c 90 be 1c fc a0 3e 50 6f 89 3f 3a 8b 70 3f
       -0.28244388 0.31442344 1.0737095 0.9396244
000250 20 c8 c7 3e 79 b3 b4 3e 3b 49 ac 3e 4f c8 fa 3d
       0.3901987 0.35293177 0.3364962 0.12245237
000260 80 bc 0f 3f 56 b4 1e be 89 fa 4d bf 68 7d a7 3e
       0.56147003 -0.1549848 -0.8046041 0.32712865
000270 22 56 e9 3e f9 64 c2 be de 09 2c be 63 83 aa be
       0.45573527 -0.3796766 -0.16800639 -0.33303365
000280 72 cd d1 be 96 ba 93 be 77 13 b8 3f 07 61 38 bd
       -0.40977055 -0.2885329 1.438094 -0.045014407
000290 9d a5 ad 3e ad d7 ab 3e bd c4 85 3d b1 59 94 3e
       0.33915415 0.33562985 0.065316655 0.2897468
0002a0 5f c9 b1 be d3 9b 9c 3e b8 7d e0 3d e5 fb 2d 3e
       -0.34723946 0.30587634 0.10961479 0.16990621
0002b0 b3 a2 03 3f 68 66 fe 3d 77 93 ce be 39 23 8c 3e
       0.51420134 0.12421876 -0.40346882 0.27370623
0002c0 7f b3 2e 3e 7d 7d ab bd 71 22 57 3f 43 05 9b 3e
       0.1706066 -0.08373544 0.8403693 0.30277452
0002d0 81 cf 52 3e 81 7f 68 3e ec 37 2f 3f 9a 2d fc 3d
       0.20586969 0.22704889 0.68444705 0.12313385
0002e0 dc b6 88 be c9 4d 1f bf 22 9a 97 3e b5 05 93 be
       -0.2670201 -0.62228066 0.29609782 -0.28715292
0002f0 e2 5a 5e be 68 da 9e be b8 65 fc be 66 3c 19 bf
       -0.21714357 -0.31026006 -0.49296355 -0.59857786
000300 65 80 aa be 68 a7 43 3f 5e 38 ad be ae 20 11 3e
       -0.33301082 0.76427317 -0.33832067 0.14172623
000310 43 ab c0 be 67 1b 8b 3e 24 60 c5 3e 8e 1a 8d 3e
       -0.37630662 0.27169344 0.38549912 0.27559322
000320 17 b7 71 3e a6 cf 07 bd f2 3d 35 3f 60 ec 01 3e
       0.23605 -0.033157013 0.70797646 0.12687826
000330 ac 0b 12 bf c7 65 cd be 7a c6 b3 3e 3a 4e 88 3f
       -0.5704906 -0.40116712 0.35112363 1.0648873
000340 9d a3 10 be 41 f5 4d bf f5 97 97 be 36 a1 3f 3d
       -0.14124914 -0.8045235 -0.29608122 0.046784602
000350 a6 cb 1a 3d 09 b5 3b 3e 1b f7 62 be 78 26 f2 3e
       0.03779187 0.18330778 -0.22164576 0.47294974
000360 8b 37 03 be 6d 67 00 be 0e 6f a4 3d f2 0d 7d be
       -0.12814157 -0.12539454 0.080289945 -0.24712351
000370 4d 10 14 b9 bb 1e 2a bd df e2 e6 be 50 62 62 bd
       -0.00014120452 -0.041533213 -0.45094964 -0.05526954
000380 98 fc ab be 4c 9f 48 3f af 9e 2a be 9f 1a 4b 3f
       -0.3359115 0.7836807 -0.16662095 0.79337496
000390 65 17 a9 3d f3 ee 4b bd 1f 2c 5e 3f f3 e1 63 be
       0.08256415 -0.049788427 0.86786073 -0.22254162
0003a0 93 cb 63 3f b8 00 e7 be a9 db 01 3f 50 cf dd 3e
       0.88982505 -0.45117736 0.507258 0.4332223
0003b0 5d b4 54 bd da 83 c5 be 41 31 88 3e a7 6e 3c 3f
       -0.05192982 -0.38577157 0.26600078 0.7360634
0003c0 f9 e9 8c ba b4 4a f9 bd 21 9e 43 bf f5 7d 05 3f
       -0.0010750882 -0.121724516 -0.7641316 0.5214532
0003d0 a3 f8 99 3e 2a 07 7c bb f9 4f 8f be 6d 07 3e 3f
       0.30072507 -0.0038456419 -0.27990702 0.7423008
0003e0 86 c5 e1 3e 16 fb 4f 3e d1 c7 34 be 6c 21 28 3f
       0.4409601 0.20310625 -0.17654349 0.65676
0003f0 79 7f ea 3e 0f 3d 3b bf 05 08 6c be 0b 2b b6 be
       0.4580038 -0.73140043 -0.23049934 -0.35579714

l1.bias f4 [8]
000000 19 01 3d 3f fd f8 4d 3f fe 5b 98 3f e5 4b 37 3f
       0.738298 0.8045805 1.1903074 0.7160018
000010 96 bf 72 3f 5d e5 a2 3f 2b 01 66 3f 69 6f 34 3f
       0.94823587 1.2726246 0.8984553 0.704825

l2.weight f4 [8, 8]
000000 07 96 c2 be 49 62 bb 3f bf 97 53 3f 47 e4 75 3f
       -0.38005087 1.4639369 0.8265342 0.9605145
000010 23 8f aa 3e 6f 48 33 3f c6 bc aa bf d4 60 37 be
       0.3331233 0.700324 -1.3338859 -0.17908031
000020 2d c9 18 bf 9e 66 20 bd d0 83 e0 3f 78 b0 b8 3f
       -0.5968197 -0.039160363 1.7540226 1.4428854
000030 a7 ca 3a 3f 14 3e 91 3f b8 a3 a9 bf 02 ae 48 bf
       0.7296547 1.134707 -1.3253088 -0.78390515
000040 05 2b bf bf 98 ab d9 be 45 8a d5 3f cc 10 52 3e
       -1.4935004 -0.42513728 1.6682822 0.2051422
000050 73 65 48 3f e4 10 4d 3f 73 47 08 3e 84 41 9d bd
       0.782798 0.801039 0.13308506 -0.07678512
000060 66 06 89 3f d9 7b c3 3e 35 24 93 3f 2b 9b f9 bf
       1.0705078 0.38180426 1.1495425 -1.9500479
000070 8b c1 bf 3f f1 bb b0 3e 16 ea fc 3f 75 e4 36 bf
       1.498094 0.34518388 1.9758937 -0.7144235
000080 66 dd ee 3f 07 1b ea 3f 87 6d b0 bf b8 dd 3b bf
       1.8661315 1.8289498 -1.3783425 -0.7338519
000090 d2 2e 53 3f cd 5b 84 3f b7 b6 d4 bd dd ce 83 3f
       0.8249332 1.0340515 -0.103864126 1.0297505
0000a0 2a ce c7 3e e7 fa 0a bf ef 45 13 be ba e2 fc 3f
       0.39024478 -0.54289097 -0.14382146 1.9756691
0000b0 7e 84 fb bd 6e 58 f0 3f be a0 33 bf db 08 f1 3f
       -0.1228113 1.8776987 -0.7016715 1.8830827
0000c0 0d 75 79 bf 0f 70 89 bf 4f 0c bb bf bb 5c 8f 3e
       -0.9744423 -1.0737323 -1.4613131 0.28000435
0000d0 f6 5e c7 3f e8 f5 b1 3f 4b 1c 99 3f 11 18 85 3f
       1.5575855 1.390317 1.1961759 1.039797
0000e0 76 29 75 3d e0 1c 93 3f 9f 58 e0 be 01 01 5b 3f
       0.059853993 1.1493187 -0.43817613 0.85548407
0000f0 d1 b7 c4 3f 31 c5 7d be 59 62 9b bd 3c 26 b7 bf
       1.5368596 -0.24782254 -0.07587118 -1.4308543

l2.bias f4 [8]
000000 c6 4d 90 be 3b b2 36 3f 3d 20 8f 3f 25 74 7f 3f
       -0.28184336 0.7136571 1.1181713 0.997866
000010 8c 18 ec bd 81 5c d6 3e bc 05 99 3e 03 30 90 be
       -0.115281194 0.4186745 0.29887187 -0.2816163

l3.weight f4 [19, 8]
000000 8c 04 7b 3d ac d5 1d 3f b2 cb 91 be ea e1 6b be
       0.061283633 0.6165416 -0.2847572 -0.23035398
000010 f9 98 14 bf 58 b7 0f bf 1e 46 cd be e6 73 13 3e
       -0.5804592 -0.56139135 -0.40092558 0.1439968
000020 d8 a7 5a c0 ab c3 87 be dd 2c cd 3e 5d 07 8b 3f
       -3.4164944 -0.2651647 0.4007329 1.0861622
000030 77 c0 21 be be 3b 99 bf 03 cd ff bf 41 cc 12 c0
       -0.15796076 -1.1971357 -1.998444 -2.2937167
000040 7b b1 6d bf cd 0c 49 be 72 68 e1 3e c7 29 08 3f
       -0.9284894 -0.1963379 0.44024998 0.5318875
000050 5a 80 69 bf 19 e6 a5 bf 05 07 0f c0 2e 22 53 3f
       -0.91211474 -1.2960845 -2.2348034 0.8247403
000060 ed 3c e3 bf fe 60 32 bf 34 28 20 bf 89 18 82 3e
       -1.7752968 -0.6967925 -0.62561345 0.25409344
000070 5e b6 b5 3d 52 e2 c4 be 23 9c 33 3f 76 5e 54 be
       0.088726744 -0.3845392 0.7016012 -0.20739159
000080 a6 ac 16 bf 0f 41 57 3e 11 ad 9a 3e e8 ce 10 c0
       -0.5885719 0.21020912 0.30210164 -2.2626286
000090 c0 0d 03 bf e6 02 05 3f 17 ff c7 3e 51 b8 fb bf
       -0.51192856 0.5195755 0.39061806 -1.9665624
0000a0 01 83 e7 bf a3 7f 5d bb ea 2a 63 3e 07 cd 7b bd
       -1.8086854 -0.0033798001 0.22184339 -0.061474826
0000b0 0f 6d 6e bf 48 4b 86 bf 02 c7 c9 3e 29 40 41 3f
       -0.9313516 -1.0491724 0.39409643 0.75488526
0000c0 a6 d6 b4 bf 42 5a bd bf b7 1f 14 c0 60 36 68 3e
       -1.4128006 -1.479317 -2.3144357 0.22676992
0000d0 83 e0 f4 3e a0 7d 95 3e 2b 66 a1 3e fe 9a 05 c0
       0.4782754 0.29197407 0.3152326 -2.087585
0000e0 45 8a 50 3e 89 d8 dd 3e 1a 81 62 be 02 92 ab bf
       0.20365246 0.43329266 -0.22119561 -1.3403933
0000f0 24 a5 a7 bc 47 0b ef 3e d5 7a e9 bf f9 20 60 bf
       -0.020464487 0.4668829 -1.824061 -0.8755031
000100 c0 47 17 bf 99 7d b2 bc 7a fa 18 3e 77 5a 07 be
       -0.59093857 -0.021788405 0.14939299 -0.13218103
000110 85 93 ee be 05 b3 57 bd 91 1f 81 3e 6f f0 e5 bf
       -0.46596923 -0.05266096 0.25219396 -1.7964
000120 1f e0 22 bf e7 96 c6 3e 1c 9a 10 3f 6d 3b 16 bf
       -0.6362323 0.38787004 0.5648515 -0.58684427
000130 4c ad 32 c0 48 e3 0c 3f 06 82 6b 3e eb 53 e1 bf
       -2.7918272 0.55034304 0.22998819 -1.7603735
000140 43 8b 02 bf e9 d1 58 3f 18 83 4f 3f a2 4c fb 3e
       -0.50993747 0.846953 0.8105941 0.49081904
000150 76 56 fd bf 9f 25 13 bf 88 43 cc bf c9 92 0d c0
       -1.9792011 -0.5747928 -1.5958109 -2.212084
000160 dd 8e d0 3e c4 5a 4b bf 7f e0 b9 bf fa ff 02 3e
       0.40733996 -0.7943537 -1.4521636 0.1279296
000170 3c 0c 51 3e 7d e6 b1 bf 7b ee 26 bc cd c1 c8 3e
       0.20414823 -1.3898464 -0.010188694 0.39210358
000180 2c ae 15 3f 23 e7 24 3f 16 34 3b 3f d3 b7 ef bf
       0.5846889 0.64415187 0.7312635 -1.8727974
000190 61 54 12 c0 8b 87 d8 3e 4b 66 f5 bf fb 1e 8a bf
       -2.2864 0.4229091 -1.9171842 -1.0790704
0001a0 7e b3 8e be 56 36 b9 be b4 ed e7 be c2 08 a2 bf
       -0.27871317 -0.36174268 -0.4529854 -1.2658923
0001b0 ff 96 5c 3e 81 25 56 3e 62 6e a4 3e d0 2a 02 be
       0.21541975 0.20912744 0.32115465 -0.12711644
0001c0 51 72 ed bc ac c4 2d bf fc 38 a1 bf c5 a3 2d be
       -0.028985174 -0.6787822 -1.2595515 -0.16957004
0001d0 f0 37 50 3f cb 90 bf 3e 72 7d b1 bf de 60 d6 bf
       0.81335354 0.37415156 -1.3866408 -1.6748312
0001e0 5a 93 ca bf 85 d2 b7 bf 15 f8 2f 3f ca 4b 14 3f
       -1.5826218 -1.436112 0.6873792 0.57928145
0001f0 e7 e0 dc bf 42 a8 72 bf 90 06 5a 3f fb 42 00 c0
       -1.7256135 -0.9478799 0.85166264 -2.0040882
000200 ce 76 e2 bf 75 31 ac bf 06 7f c4 bf 99 3c 19 3f
       -1.7692506 -1.3452593 -1.5351264 0.5985809
000210 e7 2e 57 3f 10 7f 7f bf 8f c2 e6 bf 3e 70 91 3e
       0.8405594 -0.99803257 -1.8028125 0.28405946
000220 2f 0f 05 c0 87 14 10 bf 21 c5 4f bf 11 48 49 bf
       -2.0790517 -0.5628132 -0.8116017 -0.7862559
000230 ec 65 40 be ae f4 41 3f a2 27 83 3f 99 f9 f1 bf
       -0.1878888 0.75763977 1.024647 -1.8904296
000240 49 83 70 3e 22 9a c8 bd 5e 7d fe bf 9e b3 37 bf
       0.23487581 -0.097950235 -1.9882009 -0.7175845
000250 1b 01 a3 3e dd b8 6f bc 75 74 f2 bf 4f 67 17 3f
       0.3183678 -0.014631477 -1.894179 0.5914201

l3.bias f4 [19]
000000 a4 66 48 be b5 19 70 3e ea f5 b6 be 23 53 02 be
       -0.19570404 0.23447306 -0.35734493 -0.12727027
000010 2b fe c5 be cc 87 a9 be 2a 8e 49 be 2b 60 5b 3d
       -0.38670477 -0.33111417 -0.19683138 0.05355851
000020 52 08 d8 be d4 36 86 3e ce 9d c4 3e 73 d4 a3 bd
       -0.42193848 0.26213706 0.38401645 -0.07999506
000030 7c bb a5 3e 64 b5 96 be cd 3a 8f bc 34 cf 96 3e
       0.32369602 -0.29435265 -0.017484093 0.29454958
000040 3d 7c 34 3e 07 7b 69 3e 66 5b 0a 3e
       0.17625518 0.22800837 0.13511428
